{"architecture":{"class_name":"Functional","config":{"name":"model_3","layers":[{"class_name":"InputLayer","config":{"batch_input_shape":[null,122],"dtype":"float32","sparse":false,"ragged":false,"name":"input_1"},"name":"input_1","inbound_nodes":[]},{"class_name":"Flatten","config":{"name":"flatten","trainable":true,"dtype":"float32","data_format":"channels_last"},"name":"flatten","inbound_nodes":[[["input_1",0,0,{}]]]},{"class_name":"Dense","config":{"name":"dense","trainable":true,"dtype":"float32","units":128,"activation":"elu","use_bias":true,"kernel_initializer":{"class_name":"HeNormal","config":{"seed":null}},"bias_initializer":{"class_name":"Zeros","config":{}},"kernel_regularizer":null,"bias_regularizer":null,"activity_regularizer":null,"kernel_constraint":null,"bias_constraint":null},"name":"dense","inbound_nodes":[[["flatten",0,0,{}]]]},{"class_name":"BatchNormalization","config":{"name":"batch_normalization","trainable":true,"dtype":"float32","axis":[1],"momentum":0.99,"epsilon":0.001,"center":true,"scale":true,"beta_initializer":{"class_name":"Zeros","config":{}},"gamma_initializer":{"class_name":"Ones","config":{}},"moving_mean_initializer":{"class_name":"Zeros","config":{}},"moving_variance_initializer":{"class_name":"Ones","config":{}},"beta_regularizer":null,"gamma_regularizer":null,"beta_constraint":null,"gamma_constraint":null},"name":"batch_normalization","inbound_nodes":[[["dense",0,0,{}]]]},{"class_name":"Dropout","config":{"name":"dropout","trainable":true,"dtype":"float32","rate":0.3,"noise_shape":null,"seed":null},"name":"dropout","inbound_nodes":[[["batch_normalization",0,0,{}]]]},{"class_name":"Dense","config":{"name":"dense_1","trainable":true,"dtype":"float32","units":128,"activation":"elu","use_bias":true,"kernel_initializer":{"class_name":"HeNormal","config":{"seed":null}},"bias_initializer":{"class_name":"Zeros","config":{}},"kernel_regularizer":null,"bias_regularizer":null,"activity_regularizer":null,"kernel_constraint":null,"bias_constraint":null},"name":"dense_1","inbound_nodes":[[["dropout",0,0,{}]]]},{"class_name":"BatchNormalization","config":{"name":"batch_normalization_1","trainable":true,"dtype":"float32","axis":[1],"momentum":0.99,"epsilon":0.001,"center":true,"scale":true,"beta_initializer":{"class_name":"Zeros","config":{}},"gamma_initializer":{"class_name":"Ones","config":{}},"moving_mean_initializer":{"class_name":"Zeros","config":{}},"moving_variance_initializer":{"class_name":"Ones","config":{}},"beta_regularizer":null,"gamma_regularizer":null,"beta_constraint":null,"gamma_constraint":null},"name":"batch_normalization_1","inbound_nodes":[[["dense_1",0,0,{}]]]},{"class_name":"Dropout","config":{"name":"dropout_1","trainable":true,"dtype":"float32","rate":0.3,"noise_shape":null,"seed":null},"name":"dropout_1","inbound_nodes":[[["batch_normalization_1",0,0,{}]]]},{"class_name":"Dense","config":{"name":"dense_2","trainable":true,"dtype":"float32","units":128,"activation":"elu","use_bias":true,"kernel_initializer":{"class_name":"HeNormal","config":{"seed":null}},"bias_initializer":{"class_name":"Zeros","config":{}},"kernel_regularizer":null,"bias_regularizer":null,"activity_regularizer":null,"kernel_constraint":null,"bias_constraint":null},"name":"dense_2","inbound_nodes":[[["dropout_1",0,0,{}]]]},{"class_name":"BatchNormalization","config":{"name":"batch_normalization_2","trainable":true,"dtype":"float32","axis":[1],"momentum":0.99,"epsilon":0.001,"center":true,"scale":true,"beta_initializer":{"class_name":"Zeros","config":{}},"gamma_initializer":{"class_name":"Ones","config":{}},"moving_mean_initializer":{"class_name":"Zeros","config":{}},"moving_variance_initializer":{"class_name":"Ones","config":{}},"beta_regularizer":null,"gamma_regularizer":null,"beta_constraint":null,"gamma_constraint":null},"name":"batch_normalization_2","inbound_nodes":[[["dense_2",0,0,{}]]]},{"class_name":"Dropout","config":{"name":"dropout_2","trainable":true,"dtype":"float32","rate":0.3,"noise_shape":null,"seed":null},"name":"dropout_2","inbound_nodes":[[["batch_normalization_2",0,0,{}]]]},{"class_name":"Dense","config":{"name":"dense_3","trainable":true,"dtype":"float32","units":1,"activation":"elu","use_bias":true,"kernel_initializer":{"class_name":"HeNormal","config":{"seed":null}},"bias_initializer":{"class_name":"Zeros","config":{}},"kernel_regularizer":null,"bias_regularizer":null,"activity_regularizer":null,"kernel_constraint":null,"bias_constraint":null},"name":"dense_3","inbound_nodes":[[["dropout_2",0,0,{}]]]}],"input_layers":[["input_1",0,0]],"output_layers":[["dense_3",0,0]]},"keras_version":"2.11.0","backend":"tensorflow"},"image_data_format":"channels_last","input_shapes":[[122]],"output_shapes":[[1]],"tests":[{"inputs":[{"shape":[122],"values":["…"]}],"outputs":[{"shape":[1],"values":["37F6PQ=="]}]}],"trainable_params":{"dense":{"weights":["…","…","…","…","…","…","…","…","…","…","…","…","…","…","…","…","…","…","…","…","…","…","…","…","…","…","…","…","…","…","…","…","…","…","…","…","…","…","…","…","…","…","…","…","…","…","…","…","…","…","…","…","…","…","…","…","…","…","…","…","…","…","…","…","…","…","…","…","…","…","…","…","…","…","…","…","…","…","…","…","…","…"],"bias":["…"]},"batch_normalization":{"moving_mean":["…"],"moving_variance":["…"],"beta":["…"],"gamma":["…"]},"dense_1":{"weights":["…","…","…","…","…","…","…","…","…","…","…","…","…","…","…","…","…","…","…","…","…","…","…","…","…","…","…","…","…","…","…","…","…","…","…","…","…","…","…","…","…","…","…","…","…","…","…","…","…","…","…","…","…","…","…","…","…","…","…","…","…","…","…","…","…","…","…","…","…","…","…","…","…","…","…","…","…","…","…","…","…","…","…","…","…","…"],"bias":["…"]},"batch_normalization_1":{"moving_mean":["…"],"moving_variance":["…"],"beta":["…"],"gamma":["…"]},"dense_2":{"weights":["…","…","…","…","…","…","…","…","…","…","…","…","…","…","…","…","…","…","…","…","…","…","…","…","…","…","…","…","…","…","…","…","…","…","…","…","…","…","…","…","…","…","…","…","…","…","…","…","…","…","…","…","…","…","…","…","…","…","…","…","…","…","…","…","…","…","…","…","…","…","…","…","…","…","…","…","…","…","…","…","…","…","…","…","…","…"],"bias":["…"]},"batch_normalization_2":{"moving_mean":["…"],"moving_variance":["…"],"beta":["…"],"gamma":["…"]},"dense_3":{"weights":["…"],"bias":["VfIcPQ=="]}},"hash":"bd855717a94d502f3e9c8d590205810c57e07f1132c0a88d04b959c8ad915343"}