{"architecture":{"class_name":"Functional","config":{"name":"model_1","layers":[{"class_name":"InputLayer","config":{"batch_input_shape":[null,122],"dtype":"float32","sparse":false,"ragged":false,"name":"input_1"},"name":"input_1","inbound_nodes":[]},{"class_name":"Flatten","config":{"name":"flatten_1","trainable":true,"dtype":"float32","data_format":"channels_last"},"name":"flatten_1","inbound_nodes":[[["input_1",0,0,{}]]]},{"class_name":"Dense","config":{"name":"dense_4","trainable":true,"dtype":"float32","units":128,"activation":"elu","use_bias":true,"kernel_initializer":{"class_name":"HeNormal","config":{"seed":null}},"bias_initializer":{"class_name":"Zeros","config":{}},"kernel_regularizer":null,"bias_regularizer":null,"activity_regularizer":null,"kernel_constraint":null,"bias_constraint":null},"name":"dense_4","inbound_nodes":[[["flatten_1",0,0,{}]]]},{"class_name":"BatchNormalization","config":{"name":"batch_normalization_3","trainable":true,"dtype":"float32","axis":[1],"momentum":0.99,"epsilon":0.001,"center":true,"scale":true,"beta_initializer":{"class_name":"Zeros","config":{}},"gamma_initializer":{"class_name":"Ones","config":{}},"moving_mean_initializer":{"class_name":"Zeros","config":{}},"moving_variance_initializer":{"class_name":"Ones","config":{}},"beta_regularizer":null,"gamma_regularizer":null,"beta_constraint":null,"gamma_constraint":null},"name":"batch_normalization_3","inbound_nodes":[[["dense_4",0,0,{}]]]},{"class_name":"Dropout","config":{"name":"dropout_3","trainable":true,"dtype":"float32","rate":0.3,"noise_shape":null,"seed":null},"name":"dropout_3","inbound_nodes":[[["batch_normalization_3",0,0,{}]]]},{"class_name":"Dense","config":{"name":"dense_5","trainable":true,"dtype":"float32","units":128,"activation":"elu","use_bias":true,"kernel_initializer":{"class_name":"HeNormal","config":{"seed":null}},"bias_initializer":{"class_name":"Zeros","config":{}},"kernel_regularizer":null,"bias_regularizer":null,"activity_regularizer":null,"kernel_constraint":null,"bias_constraint":null},"name":"dense_5","inbound_nodes":[[["dropout_3",0,0,{}]]]},{"class_name":"BatchNormalization","config":{"name":"batch_normalization_4","trainable":true,"dtype":"float32","axis":[1],"momentum":0.99,"epsilon":0.001,"center":true,"scale":true,"beta_initializer":{"class_name":"Zeros","config":{}},"gamma_initializer":{"class_name":"Ones","config":{}},"moving_mean_initializer":{"class_name":"Zeros","config":{}},"moving_variance_initializer":{"class_name":"Ones","config":{}},"beta_regularizer":null,"gamma_regularizer":null,"beta_constraint":null,"gamma_constraint":null},"name":"batch_normalization_4","inbound_nodes":[[["dense_5",0,0,{}]]]},{"class_name":"Dropout","config":{"name":"dropout_4","trainable":true,"dtype":"float32","rate":0.3,"noise_shape":null,"seed":null},"name":"dropout_4","inbound_nodes":[[["batch_normalization_4",0,0,{}]]]},{"class_name":"Dense","config":{"name":"dense_6","trainable":true,"dtype":"float32","units":128,"activation":"elu","use_bias":true,"kernel_initializer":{"class_name":"HeNormal","config":{"seed":null}},"bias_initializer":{"class_name":"Zeros","config":{}},"kernel_regularizer":null,"bias_regularizer":null,"activity_regularizer":null,"kernel_constraint":null,"bias_constraint":null},"name":"dense_6","inbound_nodes":[[["dropout_4",0,0,{}]]]},{"class_name":"BatchNormalization","config":{"name":"batch_normalization_5","trainable":true,"dtype":"float32","axis":[1],"momentum":0.99,"epsilon":0.001,"center":true,"scale":true,"beta_initializer":{"class_name":"Zeros","config":{}},"gamma_initializer":{"class_name":"Ones","config":{}},"moving_mean_initializer":{"class_name":"Zeros","config":{}},"moving_variance_initializer":{"class_name":"Ones","config":{}},"beta_regularizer":null,"gamma_regularizer":null,"beta_constraint":null,"gamma_constraint":null},"name":"batch_normalization_5","inbound_nodes":[[["dense_6",0,0,{}]]]},{"class_name":"Dropout","config":{"name":"dropout_5","trainable":true,"dtype":"float32","rate":0.3,"noise_shape":null,"seed":null},"name":"dropout_5","inbound_nodes":[[["batch_normalization_5",0,0,{}]]]},{"class_name":"Dense","config":{"name":"dense_7","trainable":true,"dtype":"float32","units":1,"activation":"elu","use_bias":true,"kernel_initializer":{"class_name":"HeNormal","config":{"seed":null}},"bias_initializer":{"class_name":"Zeros","config":{}},"kernel_regularizer":null,"bias_regularizer":null,"activity_regularizer":null,"kernel_constraint":null,"bias_constraint":null},"name":"dense_7","inbound_nodes":[[["dropout_5",0,0,{}]]]}],"input_layers":[["input_1",0,0]],"output_layers":[["dense_7",0,0]]},"keras_version":"2.11.0","backend":"tensorflow"},"image_data_format":"channels_last","input_shapes":[[122]],"output_shapes":[[1]],"tests":[{"inputs":[{"shape":[122],"values":["…"]}],"outputs":[{"shape":[1],"values":["CpAEQA=="]}]}],"trainable_params":{"dense_4":{"weights":["…","…","…","…","…","…","…","…","…","…","…","…","…","…","…","…","…","…","…","…","…","…","…","…","…","…","…","…","…","…","…","…","…","…","…","…","…","…","…","…","…","…","…","…","…","…","…","…","…","…","…","…","…","…","…","…","…","…","…","…","…","…","…","…","…","…","…","…","…","…","…","…","…","…","…","…","…","…","…","…","…","…"],"bias":["…"]},"batch_normalization_3":{"moving_mean":["…"],"moving_variance":["…"],"beta":["…"],"gamma":["…"]},"dense_5":{"weights":["…","…","…","…","…","…","…","…","…","…","…","…","…","…","…","…","…","…","…","…","…","…","…","…","…","…","…","…","…","…","…","…","…","…","…","…","…","…","…","…","…","…","…","…","…","…","…","…","…","…","…","…","…","…","…","…","…","…","…","…","…","…","…","…","…","…","…","…","…","…","…","…","…","…","…","…","…","…","…","…","…","…","…","…","…","…"],"bias":["…"]},"batch_normalization_4":{"moving_mean":["…"],"moving_variance":["…"],"beta":["…"],"gamma":["…"]},"dense_6":{"weights":["…","…","…","…","…","…","…","…","…","…","…","…","…","…","…","…","…","…","…","…","…","…","…","…","…","…","…","…","…","…","…","…","…","…","…","…","…","…","…","…","…","…","…","…","…","…","…","…","…","…","…","…","…","…","…","…","…","…","…","…","…","…","…","…","…","…","…","…","…","…","…","…","…","…","…","…","…","…","…","…","…","…","…","…","…","…"],"bias":["…"]},"batch_normalization_5":{"moving_mean":["…"],"moving_variance":["…"],"beta":["…"],"gamma":["…"]},"dense_7":{"weights":["…"],"bias":["BHMZPw=="]}},"hash":"2d67816495f78fe6d0419d3d998538a7dded6e2fdb9c28948b15f848dc829b6a"}