{"architecture":{"class_name":"Functional","config":{"name":"model","layers":[{"class_name":"InputLayer","config":{"batch_input_shape":[null,122],"dtype":"float32","sparse":false,"ragged":false,"name":"input_1"},"name":"input_1","inbound_nodes":[]},{"class_name":"Flatten","config":{"name":"flatten_3","trainable":true,"dtype":"float32","data_format":"channels_last"},"name":"flatten_3","inbound_nodes":[[["input_1",0,0,{}]]]},{"class_name":"Dense","config":{"name":"dense_12","trainable":true,"dtype":"float32","units":128,"activation":"relu","use_bias":true,"kernel_initializer":{"class_name":"HeNormal","config":{"seed":null}},"bias_initializer":{"class_name":"Zeros","config":{}},"kernel_regularizer":null,"bias_regularizer":null,"activity_regularizer":null,"kernel_constraint":null,"bias_constraint":null},"name":"dense_12","inbound_nodes":[[["flatten_3",0,0,{}]]]},{"class_name":"BatchNormalization","config":{"name":"batch_normalization_9","trainable":true,"dtype":"float32","axis":[1],"momentum":0.99,"epsilon":0.001,"center":true,"scale":true,"beta_initializer":{"class_name":"Zeros","config":{}},"gamma_initializer":{"class_name":"Ones","config":{}},"moving_mean_initializer":{"class_name":"Zeros","config":{}},"moving_variance_initializer":{"class_name":"Ones","config":{}},"beta_regularizer":null,"gamma_regularizer":null,"beta_constraint":null,"gamma_constraint":null},"name":"batch_normalization_9","inbound_nodes":[[["dense_12",0,0,{}]]]},{"class_name":"Dropout","config":{"name":"dropout_9","trainable":true,"dtype":"float32","rate":0.3,"noise_shape":null,"seed":null},"name":"dropout_9","inbound_nodes":[[["batch_normalization_9",0,0,{}]]]},{"class_name":"Dense","config":{"name":"dense_13","trainable":true,"dtype":"float32","units":128,"activation":"relu","use_bias":true,"kernel_initializer":{"class_name":"HeNormal","config":{"seed":null}},"bias_initializer":{"class_name":"Zeros","config":{}},"kernel_regularizer":null,"bias_regularizer":null,"activity_regularizer":null,"kernel_constraint":null,"bias_constraint":null},"name":"dense_13","inbound_nodes":[[["dropout_9",0,0,{}]]]},{"class_name":"BatchNormalization","config":{"name":"batch_normalization_10","trainable":true,"dtype":"float32","axis":[1],"momentum":0.99,"epsilon":0.001,"center":true,"scale":true,"beta_initializer":{"class_name":"Zeros","config":{}},"gamma_initializer":{"class_name":"Ones","config":{}},"moving_mean_initializer":{"class_name":"Zeros","config":{}},"moving_variance_initializer":{"class_name":"Ones","config":{}},"beta_regularizer":null,"gamma_regularizer":null,"beta_constraint":null,"gamma_constraint":null},"name":"batch_normalization_10","inbound_nodes":[[["dense_13",0,0,{}]]]},{"class_name":"Dropout","config":{"name":"dropout_10","trainable":true,"dtype":"float32","rate":0.3,"noise_shape":null,"seed":null},"name":"dropout_10","inbound_nodes":[[["batch_normalization_10",0,0,{}]]]},{"class_name":"Dense","config":{"name":"dense_14","trainable":true,"dtype":"float32","units":128,"activation":"relu","use_bias":true,"kernel_initializer":{"class_name":"HeNormal","config":{"seed":null}},"bias_initializer":{"class_name":"Zeros","config":{}},"kernel_regularizer":null,"bias_regularizer":null,"activity_regularizer":null,"kernel_constraint":null,"bias_constraint":null},"name":"dense_14","inbound_nodes":[[["dropout_10",0,0,{}]]]},{"class_name":"BatchNormalization","config":{"name":"batch_normalization_11","trainable":true,"dtype":"float32","axis":[1],"momentum":0.99,"epsilon":0.001,"center":true,"scale":true,"beta_initializer":{"class_name":"Zeros","config":{}},"gamma_initializer":{"class_name":"Ones","config":{}},"moving_mean_initializer":{"class_name":"Zeros","config":{}},"moving_variance_initializer":{"class_name":"Ones","config":{}},"beta_regularizer":null,"gamma_regularizer":null,"beta_constraint":null,"gamma_constraint":null},"name":"batch_normalization_11","inbound_nodes":[[["dense_14",0,0,{}]]]},{"class_name":"Dropout","config":{"name":"dropout_11","trainable":true,"dtype":"float32","rate":0.3,"noise_shape":null,"seed":null},"name":"dropout_11","inbound_nodes":[[["batch_normalization_11",0,0,{}]]]},{"class_name":"Dense","config":{"name":"dense_15","trainable":true,"dtype":"float32","units":3,"activation":"softmax","use_bias":true,"kernel_initializer":{"class_name":"HeNormal","config":{"seed":null}},"bias_initializer":{"class_name":"Zeros","config":{}},"kernel_regularizer":null,"bias_regularizer":null,"activity_regularizer":null,"kernel_constraint":null,"bias_constraint":null},"name":"dense_15","inbound_nodes":[[["dropout_11",0,0,{}]]]}],"input_layers":[["input_1",0,0]],"output_layers":[["dense_15",0,0]]},"keras_version":"2.11.0","backend":"tensorflow"},"image_data_format":"channels_last","input_shapes":[[122]],"output_shapes":[[3]],"tests":[{"inputs":[{"shape":[122],"values":["…"]}],"outputs":[{"shape":[3],"values":["AAAAAAAAgD8AAAAA"]}]}],"trainable_params":{"dense_12":{"weights":["…","…","…","…","…","…","…","…","…","…","…","…","…","…","…","…","…","…","…","…","…","…","…","…","…","…","…","…","…","…","…","…","…","…","…","…","…","…","…","…","…","…","…","…","…","…","…","…","…","…","…","…","…","…","…","…","…","…","…","…","…","…","…","…","…","…","…","…","…","…","…","…","…","…","…","…","…","…","…","…","…","…"],"bias":["…"]},"batch_normalization_9":{"moving_mean":["…"],"moving_variance":["…"],"beta":["…"],"gamma":["…"]},"dense_13":{"weights":["…","…","…","…","…","…","…","…","…","…","…","…","…","…","…","…","…","…","…","…","…","…","…","…","…","…","…","…","…","…","…","…","…","…","…","…","…","…","…","…","…","…","…","…","…","…","…","…","…","…","…","…","…","…","…","…","…","…","…","…","…","…","…","…","…","…","…","…","…","…","…","…","…","…","…","…","…","…","…","…","…","…","…","…","…","…"],"bias":["…"]},"batch_normalization_10":{"moving_mean":["…"],"moving_variance":["…"],"beta":["…"],"gamma":["…"]},"dense_14":{"weights":["…","…","…","…","…","…","…","…","…","…","…","…","…","…","…","…","…","…","…","…","…","…","…","…","…","…","…","…","…","…","…","…","…","…","…","…","…","…","…","…","…","…","…","…","…","…","…","…","…","…","…","…","…","…","…","…","…","…","…","…","…","…","…","…","…","…","…","…","…","…","…","…","…","…","…","…","…","…","…","…","…","…","…","…","…","…"],"bias":["…"]},"batch_normalization_11":{"moving_mean":["…"],"moving_variance":["…"],"beta":["…"],"gamma":["…"]},"dense_15":{"weights":["…","…"],"bias":["6ZMrvxl4WT68mTk+"]}},"hash":"b5b18b7acaaa2a0f9227ee1d70b89a14f1cba6db2383ff6d786f444b2c84476e"}