{"architecture":{"class_name":"Functional","config":{"name":"model_2","layers":[{"class_name":"InputLayer","config":{"batch_input_shape":[null,122],"dtype":"float32","sparse":false,"ragged":false,"name":"input_1"},"name":"input_1","inbound_nodes":[]},{"class_name":"Flatten","config":{"name":"flatten_2","trainable":true,"dtype":"float32","data_format":"channels_last"},"name":"flatten_2","inbound_nodes":[[["input_1",0,0,{}]]]},{"class_name":"Dense","config":{"name":"dense_8","trainable":true,"dtype":"float32","units":128,"activation":"elu","use_bias":true,"kernel_initializer":{"class_name":"HeNormal","config":{"seed":null}},"bias_initializer":{"class_name":"Zeros","config":{}},"kernel_regularizer":null,"bias_regularizer":null,"activity_regularizer":null,"kernel_constraint":null,"bias_constraint":null},"name":"dense_8","inbound_nodes":[[["flatten_2",0,0,{}]]]},{"class_name":"BatchNormalization","config":{"name":"batch_normalization_6","trainable":true,"dtype":"float32","axis":[1],"momentum":0.99,"epsilon":0.001,"center":true,"scale":true,"beta_initializer":{"class_name":"Zeros","config":{}},"gamma_initializer":{"class_name":"Ones","config":{}},"moving_mean_initializer":{"class_name":"Zeros","config":{}},"moving_variance_initializer":{"class_name":"Ones","config":{}},"beta_regularizer":null,"gamma_regularizer":null,"beta_constraint":null,"gamma_constraint":null},"name":"batch_normalization_6","inbound_nodes":[[["dense_8",0,0,{}]]]},{"class_name":"Dropout","config":{"name":"dropout_6","trainable":true,"dtype":"float32","rate":0.3,"noise_shape":null,"seed":null},"name":"dropout_6","inbound_nodes":[[["batch_normalization_6",0,0,{}]]]},{"class_name":"Dense","config":{"name":"dense_9","trainable":true,"dtype":"float32","units":128,"activation":"elu","use_bias":true,"kernel_initializer":{"class_name":"HeNormal","config":{"seed":null}},"bias_initializer":{"class_name":"Zeros","config":{}},"kernel_regularizer":null,"bias_regularizer":null,"activity_regularizer":null,"kernel_constraint":null,"bias_constraint":null},"name":"dense_9","inbound_nodes":[[["dropout_6",0,0,{}]]]},{"class_name":"BatchNormalization","config":{"name":"batch_normalization_7","trainable":true,"dtype":"float32","axis":[1],"momentum":0.99,"epsilon":0.001,"center":true,"scale":true,"beta_initializer":{"class_name":"Zeros","config":{}},"gamma_initializer":{"class_name":"Ones","config":{}},"moving_mean_initializer":{"class_name":"Zeros","config":{}},"moving_variance_initializer":{"class_name":"Ones","config":{}},"beta_regularizer":null,"gamma_regularizer":null,"beta_constraint":null,"gamma_constraint":null},"name":"batch_normalization_7","inbound_nodes":[[["dense_9",0,0,{}]]]},{"class_name":"Dropout","config":{"name":"dropout_7","trainable":true,"dtype":"float32","rate":0.3,"noise_shape":null,"seed":null},"name":"dropout_7","inbound_nodes":[[["batch_normalization_7",0,0,{}]]]},{"class_name":"Dense","config":{"name":"dense_10","trainable":true,"dtype":"float32","units":128,"activation":"elu","use_bias":true,"kernel_initializer":{"class_name":"HeNormal","config":{"seed":null}},"bias_initializer":{"class_name":"Zeros","config":{}},"kernel_regularizer":null,"bias_regularizer":null,"activity_regularizer":null,"kernel_constraint":null,"bias_constraint":null},"name":"dense_10","inbound_nodes":[[["dropout_7",0,0,{}]]]},{"class_name":"BatchNormalization","config":{"name":"batch_normalization_8","trainable":true,"dtype":"float32","axis":[1],"momentum":0.99,"epsilon":0.001,"center":true,"scale":true,"beta_initializer":{"class_name":"Zeros","config":{}},"gamma_initializer":{"class_name":"Ones","config":{}},"moving_mean_initializer":{"class_name":"Zeros","config":{}},"moving_variance_initializer":{"class_name":"Ones","config":{}},"beta_regularizer":null,"gamma_regularizer":null,"beta_constraint":null,"gamma_constraint":null},"name":"batch_normalization_8","inbound_nodes":[[["dense_10",0,0,{}]]]},{"class_name":"Dropout","config":{"name":"dropout_8","trainable":true,"dtype":"float32","rate":0.3,"noise_shape":null,"seed":null},"name":"dropout_8","inbound_nodes":[[["batch_normalization_8",0,0,{}]]]},{"class_name":"Dense","config":{"name":"dense_11","trainable":true,"dtype":"float32","units":1,"activation":"elu","use_bias":true,"kernel_initializer":{"class_name":"HeNormal","config":{"seed":null}},"bias_initializer":{"class_name":"Zeros","config":{}},"kernel_regularizer":null,"bias_regularizer":null,"activity_regularizer":null,"kernel_constraint":null,"bias_constraint":null},"name":"dense_11","inbound_nodes":[[["dropout_8",0,0,{}]]]}],"input_layers":[["input_1",0,0]],"output_layers":[["dense_11",0,0]]},"keras_version":"2.11.0","backend":"tensorflow"},"image_data_format":"channels_last","input_shapes":[[122]],"output_shapes":[[1]],"tests":[{"inputs":[{"shape":[122],"values":["…"]}],"outputs":[{"shape":[1],"values":["wxm6QA=="]}]}],"trainable_params":{"dense_8":{"weights":["…","…","…","…","…","…","…","…","…","…","…","…","…","…","…","…","…","…","…","…","…","…","…","…","…","…","…","…","…","…","…","…","…","…","…","…","…","…","…","…","…","…","…","…","…","…","…","…","…","…","…","…","…","…","…","…","…","…","…","…","…","…","…","…","…","…","…","…","…","…","…","…","…","…","…","…","…","…","…","…","…","…"],"bias":["…"]},"batch_normalization_6":{"moving_mean":["…"],"moving_variance":["…"],"beta":["…"],"gamma":["…"]},"dense_9":{"weights":["…","…","…","…","…","…","…","…","…","…","…","…","…","…","…","…","…","…","…","…","…","…","…","…","…","…","…","…","…","…","…","…","…","…","…","…","…","…","…","…","…","…","…","…","…","…","…","…","…","…","…","…","…","…","…","…","…","…","…","…","…","…","…","…","…","…","…","…","…","…","…","…","…","…","…","…","…","…","…","…","…","…","…","…","…","…"],"bias":["…"]},"batch_normalization_7":{"moving_mean":["…"],"moving_variance":["…"],"beta":["…"],"gamma":["…"]},"dense_10":{"weights":["…","…","…","…","…","…","…","…","…","…","…","…","…","…","…","…","…","…","…","…","…","…","…","…","…","…","…","…","…","…","…","…","…","…","…","…","…","…","…","…","…","…","…","…","…","…","…","…","…","…","…","…","…","…","…","…","…","…","…","…","…","…","…","…","…","…","…","…","…","…","…","…","…","…","…","…","…","…","…","…","…","…","…","…","…","…"],"bias":["…"]},"batch_normalization_8":{"moving_mean":["…"],"moving_variance":["…"],"beta":["…"],"gamma":["…"]},"dense_11":{"weights":["…"],"bias":["FK3LPg=="]}},"hash":"1391642b4f80e8f68902d89a23e4117bd79c57502b1d3b96f4c1c7edd0802810"}